Assets/ML-Agents/Examples/3DBall/TFModels/3DBall01.onnx (onnx, 73999 bytes, 9 tensors)

network_body.observation_encoder.processors.0.normalizer.running_mean f4 [8]
0	0xbaa28216	-0.0012398388
1	0x3b1821a5	0.0023213413
2	0x3d7c5280	0.061602116
3	0x40455201	3.0831301
4	0x3cd734d8	0.026270315
5	0x3c72aaaf	0.014811202
6	0xbee5b588	-0.4486506
7	0x3d1b22f8	0.037875146

network_body._body_endoder.seq_layers.0.weight f4 [128, 8]
0	0x3ca58c42	0.020208482
1	0xbdc536e6	-0.09629612
2	0xbf2aaa69	-0.66666275
3	0xbe84ff90	-0.2597623
4	0x3d7b96c5	0.061423082
5	0xbf2eb349	-0.6824232
6	0xbe465885	-0.19369705
7	0xbd5d4d3e	-0.054028742
8	0x3f08c330	0.5342283
9	0x3e64c38c	0.2234022
10	0xbe9d0ede	-0.30675405
11	0xbb32d1d1	-0.0027285705
12	0xbec98832	-0.3936172
13	0x3e87280c	0.2639774
14	0xbf25547f	-0.64582056
15	0xbdb19a22	-0.086719766
16	0xbeac40d9	-0.33643225
17	0xba88e880	-0.0010445267
18	0xbe88ee68	-0.2674439
19	0x3e09d74d	0.13461037
20	0xbf1e6720	-0.61876106
21	0xbc30baca	-0.0107867215
22	0xbebebaad	-0.37251797
23	0x3d51f27c	0.05125664
24	0xbe5eb28d	-0.21747799
25	0x3e013ca1	0.12620784
26	0xbd42c590	-0.04755169
27	0xbe146ab6	-0.14493832
28	0x3dd1a379	0.10236258
29	0x3ea36a69	0.31917122
30	0x3d59ba5e	0.05315625
31	0x3f0517da	0.5198952
32	0x3ed61aa2	0.41817194
33	0x3d5123ba	0.051059462
34	0xbd47f415	-0.04881676
35	0x3c422ce3	0.011851522
36	0x3e4afddb	0.198234
37	0x3e299fd3	0.16564874
38	0x3f55a541	0.8345528
39	0x3d268389	0.040652785
40	0xbd24c6cf	-0.04022866
41	0xbeb4c297	-0.3530471
42	0xbeb5579f	-0.35418412
43	0xbe8cd65c	-0.27507293
44	0x3eb61898	0.3556564
45	0xbf025409	-0.5090948
46	0x3f33b9fe	0.70205677
47	0xbf436e46	-0.7634014
48	0x3ed94cea	0.42441493
49	0x3e00b8fe	0.12570569
50	0x3d414cc4	0.04719235
51	0x3f094a77	0.5362925
52	0x3ed0c412	0.4077459
53	0x3f0a77bd	0.54088956
54	0xbe9162bd	-0.28395644
55	0x3ed84625	0.42241016
56	0xbefddfe8	-0.4958489
57	0x3e4a43ea	0.1975247
58	0xbd95b045	-0.07309011
59	0xbeaae64b	-0.33378825
60	0xbef62125	-0.48072162
61	0x3e250ca6	0.16118106
62	0xbda77329	-0.08176262
63	0xbe6b4b3b	-0.22977917
64	0x3e79bd85	0.24388702
65	0x3dd2e7f1	0.102981456
66	0xbe9d56d4	-0.30730307
67	0xbeff44cb	-0.49857172
68	0xbe0e3e6b	-0.13890998
69	0x3e4bcd90	0.19902635
70	0xbd7b7f53	-0.061400723
71	0x3e19e536	0.15028843
72	0x3ae0f309	0.0017162274
73	0x3e78eb4c	0.24308509
74	0xbf77bc74	-0.9677193
75	0xbeb5bf28	-0.35497403
76	0x3d8837f1	0.06651295
77	0xbe27d9b9	-0.16391648
78	0x3e8191a3	0.25306424
79	0xbe9535ca	-0.291426
80	0x3f888f64	1.0668759
81	0xbe70658c	-0.23476237
82	0x3e149f72	0.14513949
83	0x3c662e31	0.014049099
84	0x3f23d923	0.640032
85	0xbdd5245c	-0.104073256
86	0x3e09602b	0.13415591
87	0x3ee0888d	0.4385418
88	0xbd570bab	-0.05250136
89	0xbd2038a0	-0.0391165
90	0x3ef6bf22	0.48192698
91	0x3f07c534	0.53035283
92	0xbe09847b	-0.13429444
93	0xbee291d0	-0.4425187
94	0xbe295d2a	-0.16539446
95	0x3ec8b9a0	0.3920412
96	0x3e6b3679	0.22969998
97	0xbf293914	-0.6610272
98	0x3f071a1f	0.5277423
99	0x3ea09b1f	0.31368348
100	0xbe64d297	-0.22345959
101	0xbf03c920	-0.5147877
102	0x3e46596b	0.19370048
103	0x3e4941a9	0.19653954
104	0x3ee8a5c4	0.4543897
105	0x3c2a1e50	0.010383204
106	0xbe4f4785	-0.20242126
107	0x3eaa53cf	0.33267066
108	0x3f11a12f	0.5688657
109	0x3c1b9b84	0.009497527
110	0xbf06d457	-0.52667755
111	0xbf085989	-0.5326162
112	0x3d1a6889	0.03769735
113	0xbe00fbd4	-0.12596065
114	0xbb35ff9b	-0.002777076
115	0x3ee96203	0.4558259
116	0xbe3629a5	-0.17789324
117	0xbde0ce29	-0.10976822
118	0x3eb5db8b	0.3551906
119	0x3f095cc0	0.5365715
120	0xbec7e939	-0.39045122
121	0x3f065bcd	0.52483827
122	0xbee55068	-0.44787908
123	0xbd785b79	-0.06063411
124	0x3f18b4fa	0.5965115
125	0xbf019771	-0.50621706
126	0xbf1fb2e9	-0.6238237
127	0x3e785dae	0.24254486
128	0xbe4089c8	-0.1880256
129	0x3d23dfb0	0.040008247
130	0x3e55258b	0.20815103
131	0xbe7ab345	-0.24482448
132	0x3ef00a5f	0.46882913
133	0xbd9d05c4	-0.07667115
134	0xbe1abd8d	-0.1511137
135	0x3dc106f3	0.094251536
136	0x3eb684ea	0.3564828
137	0xbe861d02	-0.26194006
138	0x3ee09167	0.43860933
139	0x3e833c1b	0.25631794
140	0x3e3787e7	0.17922936
141	0xbf4fa3a6	-0.8110908
142	0x3e724d54	0.23662311
143	0x3e029eac	0.12755841
144	0xbed56937	-0.41681835
145	0xbe8f2b22	-0.27962595
146	0xbe987e8e	-0.29784054
147	0xbe8e1d9e	-0.2775697
148	0xbeb6d0fe	-0.35706323
149	0xbe7c9b6f	-0.24668668
150	0x3e2eec2d	0.17082281
151	0xbd3e22ca	-0.046419896
152	0xbeb2686b	-0.3484529
153	0xbe96cc45	-0.2945272
154	0xbdd51c3b	-0.10405775
155	0xbe4ea716	-0.20180926
156	0xbe1e468c	-0.15456599
157	0x3e2c4fd6	0.1682733
158	0xbdb59fbf	-0.0886836
159	0x3d0f3877	0.03496596
160	0xbe0f65fd	-0.14003749
161	0x3e61eeea	0.22063795
162	0xbd8b395b	-0.06798049
163	0xbf11f4f9	-0.57014424
164	0x3e8c8ca9	0.27451065
165	0xbe145b87	-0.1448804
166	0x3e2f508a	0.17120567
167	0x3f4c20f4	0.7973778
168	0x3effae0f	0.49937484
169	0x3eafe3ba	0.3435343
170	0xbe83b124	-0.25721085
171	0x3ea44b7c	0.3208884
172	0x3ec34d9b	0.38145146
173	0xbe5b7471	-0.21431138
174	0x3eb79337	0.35854504
175	0xbdf28ab0	-0.11842859
176	0xbcc3627b	-0.02385067
177	0x3e1e7ee4	0.15478092
178	0x3f0584cf	0.52155775
179	0x3f1661d8	0.5874305
180	0x3eb8f9e8	0.36128163
181	0xbede6e4c	-0.43443525
182	0x3e33dd6d	0.17564936
183	0x3ebc2d2b	0.3675321
184	0xbe0a2c94	-0.13493568
185	0xbe1b56ea	-0.15169874
186	0xbf3b2292	-0.73099625
187	0x3e50d30f	0.20393012
188	0xbf1d8787	-0.61534923
189	0xbec5349a	-0.38516694
190	0x3e171640	0.14754581
191	0x3f07228b	0.52787083
192	0xbe95e0ea	-0.29273158
193	0x3e52c161	0.2058158
194	0xbe197442	-0.14985755
195	0xbe9fd253	-0.31215152
196	0xbd3f6adb	-0.046732765
197	0xbe8ed7a6	-0.27898902
198	0xbedda8f1	-0.43292955
199	0x3e997966	0.29975432
200	0x3e77cd31	0.24199368
201	0x3e703423	0.23457389
202	0xbd037274	-0.032091573
203	0xbdeaf420	-0.114723444
204	0xbef5eb29	-0.48030975
205	0xbd1c5132	-0.03816337
206	0xbc295b72	-0.010336744
207	0xbf0040d2	-0.5009891
208	0xbe1ce582	-0.15321925
209	0x3ec98fbf	0.39367482
210	0xbe82ba48	-0.25532746
211	0x3e129e2b	0.14318149
212	0xbddfe7b4	-0.10932866
213	0xbe040cdc	-0.1289553
214	0x3d70b597	0.058766928
215	0xbdae840e	-0.08521281
216	0x3cbdc4a0	0.023165047
217	0x3c84b33f	0.016198752
218	0x3e380312	0.17969921
219	0x3dffb861	0.12486339
220	0xbe9d90d7	-0.30774567
221	0x3e27c483	0.16383557
222	0x3dcbc1ea	0.099490955
223	0xbe70e64c	-0.23525351
224	0xbf331e53	-0.69968146
225	0xbe56b909	-0.20969023
226	0xbee9277d	-0.4553794
227	0xbe35cd22	-0.17754033
228	0x3dc2816b	0.09497341
229	0xbeb044c0	-0.34427452
230	0x3ee659a2	0.4499026
231	0x3f0fb9fe	0.56143177
232	0xbe4d1f68	-0.20031512
233	0xbd714b69	-0.058909807
234	0x3e0f8bec	0.1401822
235	0x3f0dcc9b	0.5539033
236	0xbe0d33ba	-0.13789263
237	0x3eefe895	0.46857134
238	0x3f4212ad	0.75809747
239	0x3db9b07f	0.09066867
240	0xbe868300	-0.2627182
241	0xbdd19c30	-0.102348685
242	0x3f1b1f67	0.6059479
243	0xbe767c1b	-0.2407078
244	0x3ef4e4db	0.47830853
245	0x3e87f845	0.26556602
246	0x3edc345b	0.43008694
247	0x3e1f9372	0.1558359
248	0x3e3ee616	0.18642458
249	0xbe03be56	-0.12865576
250	0xbe833b0a	-0.2563098
251	0x3f432673	0.76230544
252	0x3e81a913	0.25324306
253	0x3ed37115	0.41297212
254	0x3e4e0f5c	0.20123047
255	0xbeeb6c95	-0.4598128

network_body._body_endoder.seq_layers.0.bias f4 [128]
0	0x3b2db389	0.0026504716
1	0xbd650f7d	-0.055922974
2	0xbaa9b50c	-0.0012947633
3	0xbc94eca4	-0.018179245
4	0x3cd5e71c	0.026111178
5	0xbcf1a7df	-0.029498992
6	0xbb7f2105	-0.0038929593
7	0xbd6a6af9	-0.057230923
8	0x3c31c9da	0.010851348
9	0xbd399f42	-0.045317896
10	0xbd86ee90	-0.06588471
11	0xbc8e011e	-0.017334517
12	0x3c91f1d9	0.017815517
13	0xbc86a0ea	-0.016434152
14	0xbb64cab1	-0.0034910853
15	0xbc6d7c3c	-0.014494952
16	0xbdbdafb7	-0.092620306
17	0x3c462435	0.012093593
18	0xbc2daf0f	-0.010600819
19	0x3b3fd6c3	0.0029272295
20	0xbd3b82ad	-0.04577892
21	0x3d02b4e6	0.0319108
22	0x3b143c5d	0.0022618987
23	0xbda9b1fe	-0.082859024
24	0xbd0f569d	-0.03499471
25	0xbcd0528b	-0.025429985
26	0x3cb00a68	0.021489337
27	0x3c05b0b1	0.008159802
28	0xbc5bde8e	-0.01341976
29	0x3bd49d3b	0.00648847
30	0x3d1aeaed	0.0378217
31	0x3ce9ffac	0.028564297
32	0x3d33cb80	0.043895245
33	0x3d4b82cf	0.049685296
34	0xbdbf4653	-0.09339585
35	0xbb9320ae	-0.0044899797
36	0x3cd6c022	0.026214663
37	0xbb3347f3	-0.0027356117
38	0xbc59513a	-0.013263995
39	0xbd12fa2d	-0.035883117
40	0xbd409c0e	-0.047023825
41	0xbd1410d0	-0.036148846
42	0xbd302e57	-0.043012943
43	0xbb5a4433	-0.003330481
44	0xbd4dc2a5	-0.050234456
45	0xbd08d2ee	-0.033404283
46	0x3cbb38e1	0.02285427
47	0x3cd8d74d	0.02646985
48	0x3d116f03	0.03550626
49	0x3baca43d	0.005268602
50	0xbcf57705	-0.02996398
51	0x3b27e824	0.0025620544
52	0x3d6ee86f	0.058327135
53	0xbcacc656	-0.021090668
54	0xbd079d42	-0.033108957
55	0xbd9a700a	-0.07540901
56	0x3cfa3c0f	0.030546216
57	0xbcdb27b2	-0.026752327
58	0xbcd68f23	-0.0261913
59	0xbcc5a3ea	-0.024126012
60	0xbcd096dd	-0.025462562
61	0xbca14704	-0.019687183
62	0xbd32ebde	-0.04368197
63	0xbd7daf2d	-0.06193464
64	0xbd23966e	-0.039938383
65	0xb8165172	-3.583864e-05
66	0x3bf06315	0.0073360302
67	0x3cfd1cb0	0.030897468
68	0xbc769d52	-0.0150521565
69	0xbc961906	-0.018322479
70	0xbcdd235b	-0.026994398
71	0x3d71566f	0.05892032
72	0x3d3c4f6a	0.045974173
73	0xbbfe16b0	-0.0077541694
74	0x3b803812	0.003912934
75	0x3b6a6e2f	0.003577124
76	0xbc82b3d6	-0.015954893
77	0xbc242c36	-0.010020306
78	0xbae6766c	-0.00175829
79	0x3c0599c3	0.008154335
80	0xbc9c8a50	-0.019108921
81	0x3cff8516	0.03119139
82	0x3c1f108d	0.009708536
83	0x3c21127c	0.009831067
84	0xbc841130	-0.016121477
85	0xbd2c87bb	-0.04212163
86	0x3c5b84eb	0.013398389
87	0xbce12fbb	-0.02748858
88	0xbc0cf40c	-0.008603107
89	0xbbe4f3cc	-0.0069870707
90	0xbd917696	-0.071026966
91	0xbd43b62a	-0.047781147
92	0x3d0c71be	0.03428816
93	0x3becca6c	0.007226279
94	0x3d4c7752	0.04991848
95	0x3c72f0e7	0.014827943
96	0xbca07158	-0.019585297
97	0x3d72a600	0.05924034
98	0xbdc2974d	-0.095015146
99	0xbe05342b	-0.13008182
100	0x3c1af56b	0.009457926
101	0x3b288f59	0.0025720207
102	0xb9a5de4f	-0.00031636885
103	0xbcb01f9f	-0.021499453
104	0x3c978a95	0.018498698
105	0x3c6d46f2	0.014482247
106	0x3cddcc59	0.02707498
107	0x3d236f46	0.03990104
108	0xbd55c633	-0.05219097
109	0xbcd3949b	-0.025827697
110	0x3cc80f7f	0.024421452
111	0xbd8fb617	-0.07017153
112	0xbc8690b0	-0.016426414
113	0x3cbd8e31	0.023139091
114	0x3d091434	0.033466533
115	0x3b956ca8	0.004560072
116	0x3cf0b536	0.029383283
117	0xbdb2bd40	-0.08727503
118	0xbc933347	-0.017968787
119	0xbccb2495	-0.024797717
120	0xbd44efdb	-0.048080307
121	0xbb8c002f	-0.004272483
122	0xbbf367c9	-0.0074281436
123	0x3d91c4f0	0.07117641
124	0xbca6314a	-0.020287175
125	0xbcad339e	-0.021142777
126	0xbc6ca130	-0.014442727
127	0xbd88fb02	-0.06688501

network_body._body_endoder.seq_layers.2.weight f4 [128, 128]
0	0x3d4db6e3	0.050223242
1	0xbc9877dc	-0.01861184
2	0xbc78d156	-0.015186628
3	0x3d048b30	0.032359302
4	0xbd918576	-0.07105534
5	0xbda1fda4	-0.07909706
6	0x3ddc8a35	0.107685484
7	0x3d72b454	0.059254006
8	0xbe15ffd7	-0.14648376
9	0x3b2118ed	0.0024581507
10	0x3e2fa6a1	0.17153408
11	0xbdd286f4	-0.102796465
12	0xbbbdf93e	-0.0057975342
13	0x3c96035e	0.018312152
14	0x3d87dc50	0.06633818
15	0xbdbcfffd	-0.092285134
16	0xbbedb7a1	-0.0072545563
17	0x3e6a7189	0.22894873
18	0x3d0e6b18	0.0347701
19	0xbe0bae9d	-0.13640828
20	0xbdccf22f	-0.1000713
21	0xbc8c8942	-0.017155293
22	0xbc1026f3	-0.008798349
23	0x3e68c5df	0.22731732
24	0xbdaa3635	-0.083111204
25	0xbe244746	-0.16042814
26	0x3d9ce7d7	0.076614074
27	0xbc6943b0	-0.014237329
28	0xbd0d5292	-0.034502573
29	0xbe103d63	-0.14085917
30	0xbe091b46	-0.1338931
31	0xbdfbca27	-0.12294417
32	0xbcca57e4	-0.024700113
33	0xbd75d95e	-0.06002175
34	0x3d4ce47f	0.0500226
35	0xbdfe6d7b	-0.124232255
36	0xbce0a37e	-0.02742171
37	0xbd5742e9	-0.052554045
38	0xbd33de83	-0.043913376
39	0xbc9a8fd4	-0.01886741
40	0x3c9dc7d6	0.019260328
41	0x3cb27f5b	0.021789243
42	0x3dfcd420	0.12345147
43	0x3d412006	0.04714968
44	0x3ce6cad0	0.02817288
45	0x3d0ff628	0.035146862
46	0xbca41ce6	-0.020033311
47	0xbd9a7263	-0.07541349
48	0xbe0b2b66	-0.13590774
49	0x3e4d0360	0.20020819
50	0xbde33c87	-0.11095529
51	0xbd55e15b	-0.05221687
52	0xbdae08bb	-0.08497759
53	0x3d8a50cf	0.06753694
54	0x3d647b60	0.055781722
55	0x3d5c32e1	0.05375946
56	0xbd41973e	-0.047263376
57	0xbc8e205c	-0.017349415
58	0x3cc11d98	0.023573682
59	0xbd6017eb	-0.05471031
60	0xbdd30eaf	-0.10305535
61	0x3c5e10a4	0.013553772
62	0xbc999ec3	-0.018752461
63	0x3d11a406	0.035556816
64	0x3dc18495	0.09449116
65	0xbda60117	-0.081056766
66	0x3db17bc4	0.086661845
67	0xbdad8ed3	-0.08474507
68	0xbd96445c	-0.07337257
69	0x3d91112c	0.070833534
70	0x3e208b70	0.15678191
71	0x3c58c03e	0.013229428
72	0xbcfa3ffb	-0.030548086
73	0xbce2bc0c	-0.027677558
74	0xbcc8f59f	-0.024531184
75	0x3b6093cc	0.0034267781
76	0xbbcb18fc	-0.0061980467
77	0x3dfe33ec	0.12412247
78	0xbdcfa479	-0.101387925
79	0xbd82fb83	-0.06395628
80	0x3d444540	0.047917604
81	0xbddc00c7	-0.10742336
82	0x3c73a931	0.014871881
83	0x3dd93f79	0.106078096
84	0xbd31eede	-0.043440692
85	0x3bf57603	0.0074908747
86	0xbd232dce	-0.039838605
87	0x3d00962a	0.031393208
88	0x3d5f01df	0.054445144
89	0xbc05f130	-0.008175179
90	0xbdbcf060	-0.092255354
91	0xbc6aabc0	-0.014323175
92	0x3d92da2e	0.07170521
93	0xbda58493	-0.08081927
94	0x3dade260	0.08490443
95	0xbd8aec75	-0.06783382
96	0xbe20f184	-0.15717131
97	0xbe5f61a4	-0.2181459
98	0x3d5400c8	0.051758558
99	0xbe16eb41	-0.1473818
100	0x3d22f4e8	0.039784342
101	0xbe419058	-0.18902719
102	0xbe15410f	-0.14575599
103	0x3d2ffcac	0.042965576
104	0x3dc181ce	0.094485864
105	0x3b3b7228	0.0028601978
106	0x3d2cdda9	0.04220358
107	0x3cdbba7e	0.026822325
108	0xbccdacf1	-0.025106879
109	0x3cfb8dbf	0.030707238
110	0x3c3b8b8c	0.011446845
111	0xbd37ed92	-0.0449043
112	0x3d1d1c56	0.0383571
113	0x3d894bf7	0.06703942
114	0xbd8c3170	-0.06845367
115	0x3dfd66fd	0.12373159
116	0xbd88e38f	-0.06684028
117	0xbd948eac	-0.07253775
118	0x3d338af2	0.04383368
119	0xbde36a66	-0.11104278
120	0x3cac7f25	0.021056721
121	0xbe1dcbe1	-0.15409805
122	0xbe3ebf6b	-0.18627708
123	0x3db8d826	0.09025602
124	0xbd4ffbcb	-0.050777238
125	0x3d53f4f9	0.051747296
126	0x3d61aafe	0.05509471
127	0xbd23f226	-0.040025853
128	0xbde472df	-0.111547224
129	0xbdbeeffc	-0.09323117
130	0x3e134544	0.14381891
131	0xbc9cdae2	-0.01914734
132	0x3d83b0e5	0.06430224
133	0xbe3ee1e8	-0.18640864
134	0xbe227a39	-0.15866937
135	0xbdf2c63e	-0.11854218
136	0x3b7b6fee	0.0038366276
137	0xbdcc8163	-0.09985616
138	0xbe554468	-0.20826876
139	0xbc89c463	-0.016817277
140	0xbd8fb428	-0.07016784
141	0xbd946dba	-0.07247491
142	0xbce054a4	-0.02738411
143	0x3e2bb65b	0.16768782
144	0xbd817a22	-0.06322123
145	0x3dabcd6d	0.08388791
146	0x3cb36a1b	0.021901181
147	0x3e196bf9	0.14982595
148	0xbdd1edcb	-0.102504335
149	0xbe093690	-0.1339972
150	0xbd9c6eb7	-0.07638305
151	0xbd8a5f01	-0.06756402
152	0xbdd444f8	-0.10364717
153	0xbde08373	-0.10962572
154	0xbd92321e	-0.07138465
155	0x3d857396	0.06516187
156	0x3e2b3b06	0.16721734
157	0xbc802a6a	-0.015645225
158	0x3d144290	0.03619629
159	0x3df1fa97	0.11815374
160	0x3d49c8f4	0.04926391
161	0x3e4ed0cd	0.20196839
162	0xbdb0cca5	-0.08632783
163	0x3daecb6e	0.08534895
164	0xbd9d3f13	-0.07678046
165	0xbd9992b1	-0.07498682
166	0xbda17513	-0.07883658
167	0xbe46eb85	-0.19425781
168	0x3cc7a1c1	0.024369122
169	0x3da3f73f	0.08006143
170	0x396c416d	0.00022531087
171	0xbe14511a	-0.14484063
172	0xbd321b49	-0.043483052
173	0xbe01558a	-0.12630287
174	0x3c85e47b	0.0163443
175	0x3d934c7a	0.07192321
176	0x3de365d1	0.11103404
177	0xbe0a83a4	-0.1352678
178	0xbe248370	-0.16065764
179	0x3d15ae55	0.03654321
180	0x3d7d92ca	0.061907567
181	0xbdfaa821	-0.12239099
182	0xbd776ccd	-0.060406495
183	0x3d841af7	0.06450456
184	0x3dc45aaa	0.09587605
185	0x3bbf39dc	0.005835755
186	0xbe3c1c5f	-0.18370198
187	0x3d2f61a0	0.04281771
188	0x3dc67f69	0.0969227
189	0xbdbdf623	-0.092754625
190	0xbc5d6151	-0.013511972
191	0x3d0e3ac7	0.034724023
192	0x3d59f6ca	0.053213872
193	0xbdaff047	-0.08590751
194	0x3d09c008	0.0336304
195	0x3bf94089	0.00760657
196	0x3d439a43	0.047754537
197	0xbc9fc124	-0.019501276
198	0xbd4e6a7d	-0.050394524
199	0xbd9bc317	-0.0760557
200	0x3d941664	0.07230833
201	0xbdfe75ac	-0.12424788
202	0xbe192e24	-0.14959008
203	0x3bda3536	0.0066591753
204	0xbda35ef3	-0.079770945
205	0x3de1b519	0.1102087
206	0x3d4612f5	0.048357923
207	0x3ddda3cd	0.10822258
208	0xbdc26dfc	-0.09493634
209	0x3a7c93b6	0.0009635048
210	0x3d2ae8b3	0.041725826
211	0xbc31c5e0	-0.0108504
212	0xbceac276	-0.02865718
213	0x3e39006f	0.18066572
214	0xbca24a0a	-0.019810695
215	0xbd4daa8f	-0.050211485
216	0x3d9fe731	0.07807768
217	0xbdb2ca70	-0.08730018
218	0x3d14a23c	0.03628753
219	0x3c420b0a	0.011843452
220	0x3c50732b	0.012722771
221	0x3e38161e	0.17977187
222	0x3e10ffbf	0.1416006
223	0x3e2350b4	0.15948755
224	0x3c439c3a	0.011939103
225	0x3d076be6	0.033061884
226	0xbd421d5c	-0.04739128
227	0xbdb3e9a2	-0.08784796
228	0xbd319185	-0.04335167
229	0x3d546bf1	0.051860753
230	0xbc96237b	-0.018327465
231	0xbe0f9f84	-0.14025694
232	0xbd2cee2d	-0.04221933
233	0xbe1ab21d	-0.15107007
234	0x3dfa51ae	0.122226104
235	0xbd583a24	-0.052789822
236	0x3e8d6fec	0.27624452
237	0xbe450791	-0.19241168
238	0x3d11dfa9	0.03561369
239	0xbe003d25	-0.12523325
240	0x3d9c2553	0.076243065
241	0x3e04ef3d	0.12981887
242	0x3e130282	0.14356425
243	0x3db59711	0.08866704
244	0xbdca9d1e	-0.09893249
245	0x3da6a6b4	0.08137265
246	0x3b7feb2a	0.003905008
247	0xbd0ca926	-0.034341
248	0xbd18a503	-0.037266742
249	0x3c84aff8	0.01619719
250	0x3d1e7f32	0.03869552
251	0x3d1aa066	0.037750624
252	0x3de2834e	0.11060201
253	0xbd1fb8dc	-0.038994655
254	0x3decd36b	0.11563762
255	0xbdb3afb6	-0.087737486

network_body._body_endoder.seq_layers.2.bias f4 [128]
0	0xbb8ce27b	-0.0042994595
1	0x3cf484ba	0.029848445
2	0xba3ecc9b	-0.00072784134
3	0xbb51beb3	-0.0032004535
4	0x3c3a591b	0.011373783
5	0x3cbad659	0.022807287
6	0x3b9d4fba	0.004800764
7	0xbc79a31f	-0.015236645
8	0xbbfc3a7d	-0.007697402
9	0xbc9ebe66	-0.019377898
10	0xbd3c3637	-0.04595014
11	0x3d3714a7	0.04469743
12	0x3b21add4	0.002467026
13	0xb910420d	-0.00013757516
14	0xbd2c277a	-0.042029835
15	0x3d67f20e	0.056627326
16	0x3c551712	0.013005989
17	0x3c355fd3	0.01107021
18	0x3c5ce93a	0.01348334
19	0x3d76da87	0.060266998
20	0x39e76366	0.0004413381
21	0xbc611f1e	-0.013740329
22	0x3ca276d2	0.019832049
23	0xbc3314f8	-0.010930292
24	0x3c7edfbc	0.015556272
25	0xbc5a29ca	-0.013315627
26	0x3dcb21ec	0.099185795
27	0xbc7565db	-0.0149778975
28	0xbcdd3712	-0.027003799
29	0xbb5a1839	-0.0033278598
30	0xbcd72a6e	-0.02626535
31	0xbbc2469a	-0.0059288265
32	0x3d5053b9	0.050861094
33	0xbbaf63cf	-0.0053524743
34	0x3cdbe8a5	0.026844332
35	0x3ce26662	0.02763671
36	0x3c78444e	0.015153004
37	0x3cbb98a0	0.022899926
38	0xbb296a3b	-0.0025850672
39	0x3d265027	0.040603783
40	0x3cab1136	0.02088223
41	0xbaebef48	-0.0018000389
42	0xbc5abab7	-0.01335018
43	0xbcf57b4a	-0.029966015
44	0x3d91890b	0.07106217
45	0xbc9e422c	-0.019318663
46	0x3ba4b326	0.005026239
47	0xbc306f62	-0.010768743
48	0xbc0dc6a5	-0.008653318
49	0xbc642120	-0.013923913
50	0xbcdcb6ed	-0.026942695
51	0xbc5038cc	-0.012708854
52	0xbc4d9a50	-0.012548998
53	0x3c9fea5e	0.019520935
54	0x3bad8910	0.00529588
55	0xbb8ea9d3	-0.0043537407
56	0x3d60e8d1	0.05490953
57	0xbcc02bd8	-0.023458406
58	0xbd177751	-0.036979023
59	0xbcf1f56d	-0.029535973
60	0x3ce8b617	0.02840714
61	0x3c2f20db	0.010688986
62	0x3c080d1a	0.008303905
63	0x3d5fe8e4	0.05466546
64	0xbcff4692	-0.03116158
65	0xbd2fbe7d	-0.042906273
66	0xbce5d67b	-0.028056374
67	0xbbd6595a	-0.0065414133
68	0x3bb64a72	0.005563074
69	0xbc82d596	-0.015970986
70	0xbcbfb2f1	-0.023400756
71	0xbd0166f8	-0.03159234
72	0xbc2e6449	-0.010644027
73	0xbaca8f13	-0.0015454016
74	0x3cf1b45b	0.029504946
75	0x3cc81aa0	0.024426758
76	0xbcb7cb2b	-0.022435745
77	0xbac27da0	-0.0014838465
78	0x3d288352	0.04114086
79	0x3c9c54e6	0.019083451
80	0x3d0921c8	0.033479482
81	0x3c98f259	0.018670248
82	0xbb88818a	-0.004165833
83	0x3cfcbff3	0.030853247
84	0x3ced7762	0.02898759
85	0xbbfb8d72	-0.0076767737
86	0xbc16fcdb	-0.009215559
87	0xbc940a76	-0.018071394
88	0xbca6b281	-0.02034879
89	0x3c9b3a82	0.018948797
90	0x3c9727b3	0.018451547
91	0xbcfc346b	-0.030786714
92	0xbb9bb96a	-0.0047523277
93	0x3c4ad5e6	0.012380099
94	0xbccafd71	-0.024779053
95	0x3c0ef613	0.008725661
96	0xba29bd7f	-0.00064750755
97	0x3ba0523c	0.0048926156
98	0x3d77527a	0.06038139
99	0x3d9c5ff7	0.07635491
100	0x3c751931	0.014959619
101	0xbb7deb72	-0.0038745073
102	0x3d1462a2	0.036226876
103	0xbc23de5a	-0.010001743
104	0xbae21c86	-0.0017250932
105	0x3d526f38	0.051375598
106	0xbb9e1b63	-0.004825042
107	0x3d44c37b	0.048037987
108	0xbc975cfe	-0.01847696
109	0xbce444cb	-0.027864834
110	0x3cda768c	0.026667856
111	0xbce4190c	-0.027843975
112	0x3c68ab75	0.014201035
113	0x3c29128e	0.010319365
114	0xbcccca73	-0.024998879
115	0xb9d63a12	-0.00040860526
116	0xbb18d60d	-0.0023320944
117	0xbab730d7	-0.0013976347
118	0xbc248d73	-0.01004349
119	0x3cac82f1	0.021058531
120	0x3d1b46b0	0.03790921
121	0xbd196c57	-0.037456837
122	0x3c0146f4	0.007890452
123	0x3d207dc8	0.039182454
124	0xbc27ce3a	-0.010242039
125	0x3c88b057	0.016685648
126	0x3cc0f945	0.023556361
127	0x3d944aba	0.072408155

action_model._continuous_distribution.log_sigma f4 [1, 2]
0	0xbe17bc06	-0.14817819
1	0xbde82915	-0.11335961

action_model._continuous_distribution.mu.weight f4 [2, 128]
0	0xbcbc5e56	-0.022994202
1	0x3d274c60	0.04084432
2	0x3ac5e13e	0.0015097035
3	0x3b8dc4ca	0.0043264376
4	0x3c648d56	0.013949713
5	0x3ce170b1	0.027519556
6	0xbc885312	-0.016641174
7	0xbd0267ad	-0.031837154
8	0xbca97dc2	-0.020689849
9	0xbd977553	-0.07395425
10	0xbb2afcc6	-0.0026090606
11	0x3c052051	0.008125381
12	0xbb1cefee	-0.002394672
13	0xbd903e88	-0.07043177
14	0x3abb52dd	0.0014291663
15	0x3d53ed23	0.051739823
16	0x3bfd079d	0.007721855
17	0x3bfa3688	0.007635895
18	0x3c280c6b	0.010256867
19	0x3cd1ee01	0.025626184
20	0x3c7ed993	0.015554803
21	0x3bb24bdd	0.0054411725
22	0xbce20b9a	-0.027593423
23	0xbcdb5672	-0.026774619
24	0xbc792894	-0.0152074285
25	0xbd976739	-0.07392735
26	0x3ddedeb3	0.1088232
27	0x3c09068c	0.008363377
28	0xbbbb94c8	-0.005724523
29	0xbd884e41	-0.06655551
30	0xbcc26a03	-0.023732191
31	0xbd6ddaa5	-0.058069844
32	0x3de3f750	0.111311555
33	0x3c4003a2	0.011719616
34	0x3d8e4afe	0.069478974
35	0x3d8aa6db	0.067701064
36	0x3b6a40be	0.0035744156
37	0xbd184b29	-0.037181053
38	0xbc32d8ff	-0.010915994
39	0x3c04712b	0.008083622
40	0xbbb71de3	-0.0055882796
41	0x3b5b9f56	0.003351172
42	0xbd65661f	-0.056005593
43	0xbcbc70b3	-0.023002958
44	0xbd88874f	-0.06666433
45	0xbd4c03dd	-0.04980837
46	0x3beb7ef3	0.0071867644
47	0xbd220c1e	-0.039562337
48	0x3cf2e62f	0.029650776
49	0xbd83c575	-0.06434146
50	0x3c5db16c	0.01353107
51	0xbb782de1	-0.0037869143
52	0xbd21f642	-0.03954149
53	0x3c3e7eee	0.011626942
54	0xbcd05be8	-0.02543445
55	0xbc97d1e1	-0.018532695
56	0x3d8e0713	0.06934943
57	0xba1fac48	-0.00060910406
58	0xbc05347d	-0.00813019
59	0xbce0d1af	-0.027443735
60	0x3c986685	0.018603573
61	0x3cb75d7b	0.022383442
62	0xbd4c8ddc	-0.049939975
63	0x3c644edb	0.013934816
64	0xbd2cea3f	-0.042215582
65	0xbb8a0322	-0.0042117992
66	0xbc283b78	-0.010268085
67	0xbc8818c1	-0.016613366
68	0xbc8224b7	-0.015886648
69	0x3afb6309	0.0019179295
70	0x3cbd9a74	0.023144938
71	0x3b9ab59e	0.0047213575
72	0xbd4b065d	-0.049566615
73	0x3ce86533	0.028368568
74	0x3c980401	0.018556597
75	0x3c80a02d	0.015701378
76	0xbc1419b7	-0.009039334
77	0xbd5850cb	-0.052811425
78	0xbddc1eda	-0.10748072
79	0xbc530225	-0.012878929
80	0x3c8e3362	0.017358486
81	0xbdb9a0ec	-0.090638965
82	0x3cb17f9f	0.0216673
83	0xbc8aa243	-0.016923076
84	0x3d501a4a	0.05080632
85	0xbda0a649	-0.078442164
86	0x3c776722	0.015100272
87	0x3b99c62c	0.0046928134
88	0xbd6e1a94	-0.058130816
89	0x3d0507c1	0.032478098
90	0x3d20a3d0	0.039218724
91	0x3c48c69c	0.012254383
92	0xbca3dc7e	-0.0200026
93	0x3d1fb0c2	0.03898693
94	0xbd54d72d	-0.05196302
95	0xbad70ff2	-0.001640795
96	0xbd2c2588	-0.04202798
97	0xbdb6157b	-0.08890816
98	0x3d20892f	0.03919333
99	0x3d962a0c	0.073322386
100	0xbd197c47	-0.037472036
101	0x3cd57730	0.02605781
102	0xbc612697	-0.013742111
103	0x3aeece6d	0.0018219479
104	0xbbc11f1f	-0.0058936025
105	0x3d94a3a7	0.07257777
106	0x3c1a2a8c	0.009409558
107	0x3d04537b	0.032306176
108	0x3b639d7b	0.0034731317
109	0xbd1a64c6	-0.03769376
110	0x3c3bfc25	0.01147369
111	0xbd02ccbe	-0.03193354
112	0x3c81445a	0.015779663
113	0xbbaba062	-0.005237625
114	0x3c126901	0.008936168
115	0x3b56657e	0.0032714303
116	0xbb06e735	-0.0020584587
117	0xbd45201a	-0.048126318
118	0xbcb29291	-0.021798404
119	0x3d0ecbc8	0.03486231
120	0x3d251409	0.04030231
121	0xbb69a288	-0.0035649855
122	0xbdacd943	-0.08439877
123	0x3daa4309	0.08313567
124	0x3cb62074	0.022232272
125	0x3c252e22	0.0100818
126	0xbb92d8ff	-0.0044814344
127	0x3dc2d322	0.09512927
128	0xbc4a17af	-0.012334748
129	0x3c6511eb	0.013981323
130	0xbc946b79	-0.018117653
131	0xb98fc796	-0.0002742379
132	0xbc61e7e6	-0.013788199
133	0xbb28bf99	-0.0025748967
134	0xbcc1fc3a	-0.023679841
135	0xbac12efb	-0.0014738733
136	0xbbfc22bf	-0.0076945717
137	0x3ce8c2e7	0.02841325
138	0x3923625a	0.0001558153
139	0xbdaa5990	-0.08317864
140	0x3d7400a3	0.05957092
141	0x3c89113d	0.016731853
142	0xb93300c5	-0.00017071057
143	0xbd886040	-0.06658983
144	0xbce8cab8	-0.028416976
145	0xbc37cdcc	-0.011218499
146	0xbc3a44d0	-0.011368945
147	0xbda5f21a	-0.08102818
148	0xbc484408	-0.012223251
149	0xbba9038c	-0.0051578935
150	0xbd158c39	-0.03651068
151	0x3d9a436f	0.07532393
152	0xbcec7ca7	-0.028868033
153	0xbc8d8368	-0.017274573
154	0xbd62f55e	-0.05540978
155	0xba6a45e0	-0.0008936804
156	0x3c6a7cb7	0.014311961
157	0x3da7132d	0.08157954
158	0x3cc1ffc8	0.023681536
159	0x3d907749	0.07054002
160	0x3d06e2ea	0.032931246
161	0x3c381fa6	0.011238014
162	0x3db8a88c	0.09016523
163	0x3ce6565e	0.028117355
164	0x3d469b50	0.04848796
165	0x3ded7532	0.11594619
166	0xbd032c61	-0.032024745
167	0xbdb70bd6	-0.089378044
168	0xbd0b604f	-0.034027394
169	0x3a1a1a01	0.00058785087
170	0x3d4ebdbb	0.05047391
171	0x3d3d31d0	0.046190083
172	0xbdc91020	-0.09817529
173	0x3ce334a0	0.027735054
174	0xbc7b7a06	-0.015348917
175	0x3d0e861c	0.034795865
176	0x3c9a0586	0.018801462
177	0xbc532453	-0.012887078
178	0x3bfe8710	0.0077675655
179	0x3bd08766	0.006363797
180	0xbb5b8bea	-0.0033500143
181	0xbbd9f6d8	-0.0066517405
182	0xbcae02a0	-0.021241486
183	0xbcfa94b0	-0.030588478
184	0x3c94c6e1	0.01816124
185	0x3a68c83a	0.0008879934
186	0x3cba4f9e	0.022743043
187	0x3b85cfd8	0.004083615
188	0xbbd1e360	-0.006405279
189	0x3ad1fcc1	0.0016020761
190	0xbd27f4ed	-0.041005064
191	0xbdc7cf8a	-0.09756382
192	0x3cc1dc7b	0.023664704
193	0x3b2cb11f	0.002635069
194	0x3ab21954	0.0013587871
195	0x3de475c0	0.111552715
196	0x3a23ab64	0.0006243496
197	0x3d35dd79	0.044400666
198	0x3c3f3ca5	0.011672174
199	0x3c3c646d	0.011498553
200	0xbd593b85	-0.053035278
201	0x3d3852b3	0.045000743
202	0xbd43c41e	-0.047794454
203	0x3d75a354	0.059970215
204	0x3cbd8705	0.023135671
205	0xbd18e8fd	-0.03733157
206	0xbd76f55f	-0.060292598
207	0xbda7c966	-0.081927106
208	0xbce6b1ed	-0.028161013
209	0xbb7dc261	-0.0038720595
210	0x3c1ea85c	0.009683695
211	0xbda4a0ea	-0.080385044
212	0x3dce5b4c	0.10076007
213	0xbcc669e3	-0.024220413
214	0x3bfdc448	0.007744346
215	0x395c1b3f	0.00020990985
216	0x3c5c9b4e	0.013464762
217	0x3b05690e	0.0020356807
218	0x3ae74583	0.0017644617
219	0x3d079688	0.033102542
220	0xb96a4d2e	-0.0002234473
221	0x3ccd95f6	0.025095921
222	0x3cbe65be	0.023241874
223	0xbcbd0e0e	-0.02307799
224	0xbc2732e0	-0.010205001
225	0x3b857cbc	0.0040737074
226	0xbd1a1bff	-0.037624355
227	0xbd8bf434	-0.068336874
228	0xbd1ca56d	-0.0382437
229	0x3d24301a	0.040084936
230	0x3dc757d8	0.09733552
231	0xbb081658	-0.002076527
232	0x3d0f2168	0.034943968
233	0xbd56230a	-0.05227951
234	0x3c49234f	0.012276485
235	0xbcabe297	-0.02098207
236	0x3c8c605b	0.01713579
237	0x3c1fb03c	0.009746607
238	0xbbf400d5	-0.0074463882
239	0x3b8f31c3	0.0043699457
240	0xbb1eaa09	-0.0024210236
241	0xbc42179e	-0.011846451
242	0x3c8856b2	0.016642902
243	0x3b5a20df	0.0033283753
244	0x382d8068	4.1366002e-05
245	0xbd1ce01e	-0.038299672
246	0xbc910881	-0.01770425
247	0x3db72689	0.08942897
248	0x3dba71a7	0.09103709
249	0xbc7c4a75	-0.015398611
250	0x3d02ca52	0.03193123
251	0xbbb46096	-0.005504678
252	0x3ca9cd0a	0.020727653
253	0xbcf56ae5	-0.029958198
254	0xbd252d8f	-0.04032665
255	0xbd633f72	-0.055480428

action_model._continuous_distribution.mu.bias f4 [2]
0	0x3cce2d3d	0.025168056
1	0xbc98d504	-0.018656261

50 f4 [8]
0	0x3d7e0600	0.06201744
1	0x3d75cffe	0.06001281
2	0x3f576971	0.84145266
3	0x3e8bc268	0.27296758
4	0x3f56b788	0.83873796
5	0x3f3089e5	0.6896041
6	0x3f5a0885	0.8516925
7	0x3f2f60af	0.685069
